10/13 02:46:59 PM args = Namespace(batch_size=256, data='/home/sliuau/ternary_vit/dataset/imagenet-1k/imagenet', epochs=128, label_smooth=0.1, learning_rate=0.00125, momentum=0.9, n_bit=2, quantize_downsample='0', save='./models', student='resnet18', teacher='resnet101', weight_decay=0.0, workers=40)
10/13 02:47:01 PM student:
10/13 02:47:01 PM ResNet(
  (conv1): Conv2d(3, 64, kernel_size=(7, 7), stride=(2, 2), padding=(3, 3), bias=False)
  (bn1): BatchNorm2d(64, eps=1e-05, momentum=0.1, affine=True, track_running_stats=True)
  (relu): ReLU(inplace=True)
  (maxpool): MaxPool2d(kernel_size=3, stride=2, padding=1, dilation=1, ceil_mode=False)
  (layer1): Sequential(
    (0): BasicBlock(
      (bias11): LearnableBias()
      (prelu1): PReLU(num_parameters=64)
      (bias12): LearnableBias()
      (quan1): LTQ()
      (conv1): HardQuantizeConv()
      (bn1): BatchNorm2d(64, eps=1e-05, momentum=0.1, affine=True, track_running_stats=True)
      (bias21): LearnableBias()
      (prelu2): PReLU(num_parameters=64)
      (bias22): LearnableBias()
      (quan2): LTQ()
      (conv2): HardQuantizeConv()
      (bn2): BatchNorm2d(64, eps=1e-05, momentum=0.1, affine=True, track_running_stats=True)
      (bias31): LearnableBias()
      (prelu3): PReLU(num_parameters=64)
      (bias32): LearnableBias()
    )
    (1): BasicBlock(
      (bias11): LearnableBias()
      (prelu1): PReLU(num_parameters=64)
      (bias12): LearnableBias()
      (quan1): LTQ()
      (conv1): HardQuantizeConv()
      (bn1): BatchNorm2d(64, eps=1e-05, momentum=0.1, affine=True, track_running_stats=True)
      (bias21): LearnableBias()
      (prelu2): PReLU(num_parameters=64)
      (bias22): LearnableBias()
      (quan2): LTQ()
      (conv2): HardQuantizeConv()
      (bn2): BatchNorm2d(64, eps=1e-05, momentum=0.1, affine=True, track_running_stats=True)
      (bias31): LearnableBias()
      (prelu3): PReLU(num_parameters=64)
      (bias32): LearnableBias()
    )
  )
  (layer2): Sequential(
    (0): BasicBlock(
      (bias11): LearnableBias()
      (prelu1): PReLU(num_parameters=64)
      (bias12): LearnableBias()
      (quan1): LTQ()
      (conv1): HardQuantizeConv()
      (bn1): BatchNorm2d(128, eps=1e-05, momentum=0.1, affine=True, track_running_stats=True)
      (bias21): LearnableBias()
      (prelu2): PReLU(num_parameters=128)
      (bias22): LearnableBias()
      (quan2): LTQ()
      (conv2): HardQuantizeConv()
      (bn2): BatchNorm2d(128, eps=1e-05, momentum=0.1, affine=True, track_running_stats=True)
      (downsample): Sequential(
        (0): Conv2d(64, 128, kernel_size=(1, 1), stride=(2, 2), bias=False)
        (1): BatchNorm2d(128, eps=1e-05, momentum=0.1, affine=True, track_running_stats=True)
      )
      (bias31): LearnableBias()
      (prelu3): PReLU(num_parameters=128)
      (bias32): LearnableBias()
    )
    (1): BasicBlock(
      (bias11): LearnableBias()
      (prelu1): PReLU(num_parameters=128)
      (bias12): LearnableBias()
      (quan1): LTQ()
      (conv1): HardQuantizeConv()
      (bn1): BatchNorm2d(128, eps=1e-05, momentum=0.1, affine=True, track_running_stats=True)
      (bias21): LearnableBias()
      (prelu2): PReLU(num_parameters=128)
      (bias22): LearnableBias()
      (quan2): LTQ()
      (conv2): HardQuantizeConv()
      (bn2): BatchNorm2d(128, eps=1e-05, momentum=0.1, affine=True, track_running_stats=True)
      (bias31): LearnableBias()
      (prelu3): PReLU(num_parameters=128)
      (bias32): LearnableBias()
    )
  )
  (layer3): Sequential(
    (0): BasicBlock(
      (bias11): LearnableBias()
      (prelu1): PReLU(num_parameters=128)
      (bias12): LearnableBias()
      (quan1): LTQ()
      (conv1): HardQuantizeConv()
      (bn1): BatchNorm2d(256, eps=1e-05, momentum=0.1, affine=True, track_running_stats=True)
      (bias21): LearnableBias()
      (prelu2): PReLU(num_parameters=256)
      (bias22): LearnableBias()
      (quan2): LTQ()
      (conv2): HardQuantizeConv()
      (bn2): BatchNorm2d(256, eps=1e-05, momentum=0.1, affine=True, track_running_stats=True)
      (downsample): Sequential(
        (0): Conv2d(128, 256, kernel_size=(1, 1), stride=(2, 2), bias=False)
        (1): BatchNorm2d(256, eps=1e-05, momentum=0.1, affine=True, track_running_stats=True)
      )
      (bias31): LearnableBias()
      (prelu3): PReLU(num_parameters=256)
      (bias32): LearnableBias()
    )
    (1): BasicBlock(
      (bias11): LearnableBias()
      (prelu1): PReLU(num_parameters=256)
      (bias12): LearnableBias()
      (quan1): LTQ()
      (conv1): HardQuantizeConv()
      (bn1): BatchNorm2d(256, eps=1e-05, momentum=0.1, affine=True, track_running_stats=True)
      (bias21): LearnableBias()
      (prelu2): PReLU(num_parameters=256)
      (bias22): LearnableBias()
      (quan2): LTQ()
      (conv2): HardQuantizeConv()
      (bn2): BatchNorm2d(256, eps=1e-05, momentum=0.1, affine=True, track_running_stats=True)
      (bias31): LearnableBias()
      (prelu3): PReLU(num_parameters=256)
      (bias32): LearnableBias()
    )
  )
  (layer4): Sequential(
    (0): BasicBlock(
      (bias11): LearnableBias()
      (prelu1): PReLU(num_parameters=256)
      (bias12): LearnableBias()
      (quan1): LTQ()
      (conv1): HardQuantizeConv()
      (bn1): BatchNorm2d(512, eps=1e-05, momentum=0.1, affine=True, track_running_stats=True)
      (bias21): LearnableBias()
      (prelu2): PReLU(num_parameters=512)
      (bias22): LearnableBias()
      (quan2): LTQ()
      (conv2): HardQuantizeConv()
      (bn2): BatchNorm2d(512, eps=1e-05, momentum=0.1, affine=True, track_running_stats=True)
      (downsample): Sequential(
        (0): Conv2d(256, 512, kernel_size=(1, 1), stride=(2, 2), bias=False)
        (1): BatchNorm2d(512, eps=1e-05, momentum=0.1, affine=True, track_running_stats=True)
      )
      (bias31): LearnableBias()
      (prelu3): PReLU(num_parameters=512)
      (bias32): LearnableBias()
    )
    (1): BasicBlock(
      (bias11): LearnableBias()
      (prelu1): PReLU(num_parameters=512)
      (bias12): LearnableBias()
      (quan1): LTQ()
      (conv1): HardQuantizeConv()
      (bn1): BatchNorm2d(512, eps=1e-05, momentum=0.1, affine=True, track_running_stats=True)
      (bias21): LearnableBias()
      (prelu2): PReLU(num_parameters=512)
      (bias22): LearnableBias()
      (quan2): LTQ()
      (conv2): HardQuantizeConv()
      (bn2): BatchNorm2d(512, eps=1e-05, momentum=0.1, affine=True, track_running_stats=True)
      (bias31): LearnableBias()
      (prelu3): PReLU(num_parameters=512)
      (bias32): LearnableBias()
    )
  )
  (avgpool): AdaptiveAvgPool2d(output_size=(1, 1))
  (fc): Linear(in_features=512, out_features=1000, bias=True)
)
weight_param: conv1.weight
alpha_param: layer1.0.quan1.start
alpha_param: layer1.0.quan1.a
alpha_param: layer1.0.quan1.scale1
alpha_param: layer1.0.quan1.scale2
weight_param: layer1.0.conv1.weight
alpha_param: layer1.0.quan2.start
alpha_param: layer1.0.quan2.a
alpha_param: layer1.0.quan2.scale1
alpha_param: layer1.0.quan2.scale2
weight_param: layer1.0.conv2.weight
…
